…
2025-04-20 16:35:29,319 - INFO - Loading and preprocessing data...
2025-04-20 16:35:53,325 - INFO - Loading and preprocessing data...
2025-04-20 16:36:19,247 - INFO - Loading and preprocessing data...
2025-04-20 16:36:35,824 - INFO - Loading and preprocessing data...
2025-04-20 16:36:36,001 - INFO - X shape: (11182, 50, 101)
2025-04-20 16:36:36,001 - INFO - y shape: (11182,)
2025-04-20 16:36:36,136 - INFO - Model input size: 101
2025-04-20 16:36:36,136 - INFO - Model architecture:
GoldPricePredictor(
  (lstm): LSTM(101, 256, num_layers=10, batch_first=True, dropout=0.2, bidirectional=True)
  (attention): Sequential(
    (0): Linear(in_features=512, out_features=256, bias=True)
    (1): Tanh()
    (2): Linear(in_features=256, out_features=1, bias=True)
  )
  (output_net): Sequential(
    (0): Linear(in_features=512, out_features=256, bias=True)
    (1): ReLU()
    (2): Dropout(p=0.2, inplace=False)
    (3): Linear(in_features=256, out_features=128, bias=True)
    (4): ReLU()
    (5): Dropout(p=0.2, inplace=False)
    (6): Linear(in_features=128, out_features=64, bias=True)
    (7): ReLU()
    (8): Linear(in_features=64, out_features=1, bias=True)
  )
)
2025-04-20 16:36:36,814 - INFO - Starting training...
2025-04-20 16:39:08,462 - INFO - Epoch 1/100:
2025-04-20 16:39:08,462 - INFO - Train Loss: nan, Val Loss: nan
2025-04-20 16:41:34,557 - INFO - Epoch 2/100:
2025-04-20 16:41:34,557 - INFO - Train Loss: nan, Val Loss: nan
2025-04-20 16:42:54,115 - INFO - Loading and preprocessing data...
2025-04-20 16:43:35,919 - INFO - Loading and preprocessing data...
2025-04-20 16:43:36,115 - INFO - X shape: (11182, 50, 99)
2025-04-20 16:43:36,115 - INFO - y shape: (11182,)
2025-04-20 16:43:36,249 - INFO - Model input size: 99
2025-04-20 16:43:36,249 - INFO - Model architecture:
GoldPricePredictor(
  (lstm): LSTM(99, 256, num_layers=10, batch_first=True, dropout=0.2, bidirectional=True)
  (attention): Sequential(
    (0): Linear(in_features=512, out_features=256, bias=True)
    (1): Tanh()
    (2): Linear(in_features=256, out_features=1, bias=True)
  )
  (output_net): Sequential(
    (0): Linear(in_features=512, out_features=256, bias=True)
    (1): ReLU()
    (2): Dropout(p=0.2, inplace=False)
    (3): Linear(in_features=256, out_features=128, bias=True)
    (4): ReLU()
    (5): Dropout(p=0.2, inplace=False)
    (6): Linear(in_features=128, out_features=64, bias=True)
    (7): ReLU()
    (8): Linear(in_features=64, out_features=1, bias=True)
  )
)
2025-04-20 16:43:36,874 - INFO - Starting training...
2025-04-20 16:46:22,999 - INFO - Loading and preprocessing data...
2025-04-20 16:46:23,198 - INFO - X shape: (11182, 50, 99)
2025-04-20 16:46:23,198 - INFO - y shape: (11182,)
2025-04-20 16:46:23,332 - INFO - Model input size: 99
2025-04-20 16:46:23,332 - INFO - Model architecture:
GoldPricePredictor(
  (lstm): LSTM(99, 256, num_layers=10, batch_first=True, dropout=0.2, bidirectional=True)
  (attention): Sequential(
    (0): Linear(in_features=512, out_features=256, bias=True)
    (1): Tanh()
    (2): Linear(in_features=256, out_features=1, bias=True)
  )
  (output_net): Sequential(
    (0): Linear(in_features=512, out_features=256, bias=True)
    (1): ReLU()
    (2): Dropout(p=0.2, inplace=False)
    (3): Linear(in_features=256, out_features=128, bias=True)
    (4): ReLU()
    (5): Dropout(p=0.2, inplace=False)
    (6): Linear(in_features=128, out_features=64, bias=True)
    (7): ReLU()
    (8): Linear(in_features=64, out_features=1, bias=True)
  )
)
2025-04-20 16:46:23,823 - INFO - Starting training...
2025-04-20 16:48:10,928 - INFO - Loading and preprocessing data...
2025-04-20 16:48:11,140 - INFO - X shape: (11182, 50, 99)
2025-04-20 16:48:11,141 - INFO - y shape: (11182,)
2025-04-20 16:48:11,303 - INFO - Model input size: 99
2025-04-20 16:48:11,303 - INFO - Model architecture:
GoldPricePredictor(
  (lstm): LSTM(99, 256, num_layers=10, batch_first=True, dropout=0.2, bidirectional=True)
  (attention): Sequential(
    (0): Linear(in_features=512, out_features=256, bias=True)
    (1): Tanh()
    (2): Linear(in_features=256, out_features=1, bias=True)
  )
  (output_net): Sequential(
    (0): Linear(in_features=512, out_features=256, bias=True)
    (1): ReLU()
    (2): Dropout(p=0.2, inplace=False)
    (3): Linear(in_features=256, out_features=128, bias=True)
    (4): ReLU()
    (5): Dropout(p=0.2, inplace=False)
    (6): Linear(in_features=128, out_features=64, bias=True)
    (7): ReLU()
    (8): Linear(in_features=64, out_features=1, bias=True)
  )
)
2025-04-20 16:48:11,996 - INFO - Starting training...
2025-04-20 16:49:58,344 - INFO - Loading and preprocessing data...
2025-04-20 16:49:58,545 - INFO - X shape: (11182, 50, 99)
2025-04-20 16:49:58,545 - INFO - y shape: (11182,)
2025-04-20 16:49:58,681 - INFO - Model input size: 99
2025-04-20 16:49:58,682 - INFO - Model architecture:
GoldPricePredictor(
  (lstm): LSTM(99, 256, num_layers=10, batch_first=True, dropout=0.2, bidirectional=True)
  (attention): Sequential(
    (0): Linear(in_features=512, out_features=256, bias=True)
    (1): Tanh()
    (2): Linear(in_features=256, out_features=1, bias=True)
  )
  (output_net): Sequential(
    (0): Linear(in_features=512, out_features=256, bias=True)
    (1): ReLU()
    (2): Dropout(p=0.2, inplace=False)
    (3): Linear(in_features=256, out_features=128, bias=True)
    (4): ReLU()
    (5): Dropout(p=0.2, inplace=False)
    (6): Linear(in_features=128, out_features=64, bias=True)
    (7): ReLU()
    (8): Linear(in_features=64, out_features=1, bias=True)
  )
)
2025-04-20 16:49:59,287 - INFO - Starting training...
2025-04-20 16:51:54,787 - INFO - Loading and preprocessing data...
2025-04-20 16:51:54,992 - INFO - X shape: (11182, 50, 99)
2025-04-20 16:51:54,992 - INFO - y shape: (11182,)
2025-04-20 16:51:55,129 - INFO - Model input size: 99
2025-04-20 16:51:55,129 - INFO - Model architecture:
GoldPricePredictor(
  (lstm): LSTM(99, 256, num_layers=10, batch_first=True, dropout=0.2, bidirectional=True)
  (attention): Sequential(
    (0): Linear(in_features=512, out_features=256, bias=True)
    (1): Tanh()
    (2): Linear(in_features=256, out_features=1, bias=True)
  )
  (output_net): Sequential(
    (0): Linear(in_features=512, out_features=256, bias=True)
    (1): ReLU()
    (2): Dropout(p=0.2, inplace=False)
    (3): Linear(in_features=256, out_features=128, bias=True)
    (4): ReLU()
    (5): Dropout(p=0.2, inplace=False)
    (6): Linear(in_features=128, out_features=64, bias=True)
    (7): ReLU()
    (8): Linear(in_features=64, out_features=1, bias=True)
  )
)
2025-04-20 16:51:55,615 - INFO - Starting training...
2025-04-20 16:51:55,615 - INFO - Training plots will be saved to: src/Figs/Training
2025-04-20 16:54:31,156 - INFO - Loading and preprocessing data...
2025-04-20 16:54:31,346 - INFO - X shape: (11182, 50, 99)
2025-04-20 16:54:31,346 - INFO - y shape: (11182,)
2025-04-20 16:54:31,480 - INFO - Model input size: 99
2025-04-20 16:54:31,480 - INFO - Model architecture:
GoldPricePredictor(
  (lstm): LSTM(99, 256, num_layers=10, batch_first=True, dropout=0.2, bidirectional=True)
  (attention): Sequential(
    (0): Linear(in_features=512, out_features=256, bias=True)
    (1): Tanh()
    (2): Linear(in_features=256, out_features=1, bias=True)
  )
  (output_net): Sequential(
    (0): Linear(in_features=512, out_features=256, bias=True)
    (1): ReLU()
    (2): Dropout(p=0.2, inplace=False)
    (3): Linear(in_features=256, out_features=128, bias=True)
    (4): ReLU()
    (5): Dropout(p=0.2, inplace=False)
    (6): Linear(in_features=128, out_features=64, bias=True)
    (7): ReLU()
    (8): Linear(in_features=64, out_features=1, bias=True)
  )
)
2025-04-20 16:54:31,949 - INFO - Starting training...
2025-04-20 16:54:31,949 - INFO - Training plots will be saved to: src/Figs/Training
2025-04-20 16:56:54,011 - INFO - Plot saved to: src/Figs/Training/training_progress.png
2025-04-20 16:56:54,011 - INFO - Epoch 1/100:
2025-04-20 16:56:54,011 - INFO - Train Loss: 0.769229, Val Loss: 0.768888
2025-04-20 16:56:54,011 - INFO - Sharpe Ratio: 0.0011
…
2025-04-20 17:10:36,830 - INFO - Train Loss: 0.767153, Val Loss: 0.768787
2025-04-20 17:10:36,830 - INFO - Sharpe Ratio: nan
2025-04-20 17:10:36,830 - INFO - Max Drawdown: 0.0000
2025-04-20 17:10:36,830 - INFO - Direction Accuracy: 0.1145
2025-04-20 17:31:11,447 - INFO - Loading and preprocessing data...
2025-04-20 17:31:11,643 - INFO - X shape: (11182, 50, 99)
2025-04-20 17:31:11,643 - INFO - y shape: (11182,)
2025-04-20 17:31:11,773 - INFO - Model input size: 99
2025-04-20 17:31:11,773 - INFO - Model architecture:
GoldPricePredictor(
  (lstm): LSTM(99, 256, num_layers=10, batch_first=True, dropout=0.2, bidirectional=True)
  (attention): Sequential(
    (0): Linear(in_features=512, out_features=256, bias=True)
    (1): Tanh()
    (2): Linear(in_features=256, out_features=1, bias=True)
  )
  (output_net): Sequential(
    (0): Linear(in_features=512, out_features=256, bias=True)
    (1): ReLU()
    (2): Dropout(p=0.2, inplace=False)
    (3): Linear(in_features=256, out_features=128, bias=True)
    (4): ReLU()
    (5): Dropout(p=0.2, inplace=False)
    (6): Linear(in_features=128, out_features=64, bias=True)
    (7): ReLU()
    (8): Linear(in_features=64, out_features=1, bias=True)
  )
)
2025-04-20 17:31:12,396 - INFO - Starting training...
2025-04-20 17:31:12,396 - INFO - Training plots will be saved to: src/Figs/Training
2025-04-20 17:33:29,167 - INFO - Plot saved to: src/Figs/Training/training_progress.png
2025-04-20 17:33:29,167 - INFO - Epoch 1/100:
2025-04-20 17:33:29,167 - INFO - Train Loss: 0.769229, Val Loss: 0.768888
2025-04-20 17:33:29,167 - INFO - Sharpe Ratio: 0.0011
…
2025-04-20 17:44:46,958 - INFO - Train Loss: 0.767468, Val Loss: 0.768769
2025-04-20 17:44:46,958 - INFO - Sharpe Ratio: nan
2025-04-20 17:44:46,958 - INFO - Max Drawdown: 0.0000
2025-04-20 17:44:46,958 - INFO - Direction Accuracy: 0.1145
2025-04-20 18:23:06,188 - INFO - Loading and preprocessing data...
2025-04-20 18:23:06,389 - INFO - X shape: (11182, 50, 99)
2025-04-20 18:23:06,390 - INFO - y shape: (11182,)
2025-04-20 18:23:06,683 - INFO - Model input size: 99
2025-04-20 18:23:06,684 - INFO - Model architecture:
GoldPricePredictor(
  (lstm): LSTM(99, 512, num_layers=8, batch_first=True, dropout=0.3, bidirectional=True)
  (layer_norm): LayerNorm((1024,), eps=1e-05, elementwise_affine=True)
  (attention): MultiheadAttention(
    (out_proj): NonDynamicallyQuantizableLinear(in_features=1024, out_features=1024, bias=True)
  )
  (output_net): Sequential(
    (0): Linear(in_features=1024, out_features=512, bias=True)
    (1): LayerNorm((512,), eps=1e-05, elementwise_affine=True)
    (2): ReLU()
    (3): Dropout(p=0.3, inplace=False)
    (4): Linear(in_features=512, out_features=256, bias=True)
    (5): LayerNorm((256,), eps=1e-05, elementwise_affine=True)
    (6): ReLU()
    (7): Dropout(p=0.3, inplace=False)
    (8): Linear(in_features=256, out_features=128, bias=True)
    (9): LayerNorm((128,), eps=1e-05, elementwise_affine=True)
    (10): ReLU()
    (11): Linear(in_features=128, out_features=1, bias=True)
  )
)
2025-04-20 18:23:07,290 - INFO - Starting training...
2025-04-20 18:23:07,290 - INFO - Training plots will be saved to: src/Figs/Training
2025-04-20 18:28:06,313 - INFO - Plot saved to: src/Figs/Training/training_progress.png
2025-04-20 18:28:06,313 - INFO - Epoch 1/100:
2025-04-20 18:28:06,313 - INFO - Train Loss: 1.457030, Val Loss: 0.352429
2025-04-20 18:28:06,313 - INFO - Sharpe Ratio: 0.2964
…
2025-04-20 19:04:46,992 - INFO - Sharpe Ratio: -0.0007
2025-04-20 19:04:46,992 - INFO - Max Drawdown: -0.0000
2025-04-20 19:04:46,992 - INFO - Direction Accuracy: 0.4173
2025-04-20 19:04:46,992 - INFO - Learning Rate: 0.000199
2025-04-20 19:30:48,481 - INFO - Loading and preprocessing data...
2025-04-20 19:30:48,832 - INFO - X shape: (44062, 50, 46)
2025-04-20 19:30:48,832 - INFO - y shape: (44062,)
2025-04-20 19:30:48,999 - INFO - Model input size: 46
2025-04-20 19:30:48,999 - INFO - Model architecture:
GoldPricePredictor(
  (lstm): LSTM(46, 256, num_layers=4, batch_first=True, dropout=0.2, bidirectional=True)
  (layer_norm): LayerNorm((512,), eps=1e-05, elementwise_affine=True)
  (attention): MultiheadAttention(
    (out_proj): NonDynamicallyQuantizableLinear(in_features=512, out_features=512, bias=True)
  )
  (output_net): Sequential(
    (0): Linear(in_features=512, out_features=256, bias=True)
    (1): LayerNorm((256,), eps=1e-05, elementwise_affine=True)
    (2): ReLU()
    (3): Dropout(p=0.2, inplace=False)
    (4): Linear(in_features=256, out_features=128, bias=True)
    (5): LayerNorm((128,), eps=1e-05, elementwise_affine=True)
    (6): ReLU()
    (7): Dropout(p=0.2, inplace=False)
    (8): Linear(in_features=128, out_features=1, bias=True)
  )
)
2025-04-20 19:30:49,612 - INFO - Starting training...
2025-04-20 19:30:49,612 - INFO - Training plots will be saved to: src/Figs/Training
2025-04-20 19:35:33,551 - INFO - Loading and preprocessing data...
2025-04-20 19:35:33,897 - INFO - X shape: (44062, 50, 46)
2025-04-20 19:35:33,897 - INFO - y shape: (44062,)
2025-04-20 19:35:34,075 - INFO - Model input size: 46
2025-04-20 19:35:34,075 - INFO - Model architecture:
GoldPricePredictor(
  (lstm): LSTM(46, 256, num_layers=4, batch_first=True, dropout=0.2, bidirectional=True)
  (layer_norm): LayerNorm((512,), eps=1e-05, elementwise_affine=True)
  (attention): MultiheadAttention(
    (out_proj): NonDynamicallyQuantizableLinear(in_features=512, out_features=512, bias=True)
  )
  (output_net): Sequential(
    (0): Linear(in_features=512, out_features=256, bias=True)
    (1): LayerNorm((256,), eps=1e-05, elementwise_affine=True)
    (2): ReLU()
    (3): Dropout(p=0.2, inplace=False)
    (4): Linear(in_features=256, out_features=128, bias=True)
    (5): LayerNorm((128,), eps=1e-05, elementwise_affine=True)
    (6): ReLU()
    (7): Dropout(p=0.2, inplace=False)
    (8): Linear(in_features=128, out_features=1, bias=True)
  )
)
2025-04-20 19:35:34,652 - INFO - Starting training...
2025-04-20 19:35:34,653 - INFO - Training plots will be saved to: src/Figs/Training
2025-04-20 19:39:42,918 - INFO - Plot saved to: src/Figs/Training/training_progress.png
2025-04-20 19:39:42,918 - INFO - Epoch 1/100:
2025-04-20 19:39:42,918 - INFO - Train Loss: 0.488753, Val Loss: 0.357755
2025-04-20 19:39:42,918 - INFO - Sharpe Ratio: 0.1616
…
2025-04-20 19:47:41,443 - INFO - Train Loss: 0.387976, Val Loss: 0.358130
2025-04-20 19:47:41,443 - INFO - Sharpe Ratio: 0.0000
2025-04-20 19:47:41,443 - INFO - Max Drawdown: -0.0000
2025-04-20 19:47:41,443 - INFO - Direction Accuracy: 0.1196
2025-04-20 19:47:41,443 - INFO - Learning Rate: 0.001491
2025-04-21 19:19:16,467 - INFO - Loading configuration...
2025-04-21 19:19:16,471 - INFO - Window size: 20
2025-04-21 19:19:16,471 - INFO - Batch size: 32
2025-04-21 19:19:16,471 - INFO - 
Preparing data...
2025-04-21 19:19:16,824 - INFO - 
Creating model...
2025-04-21 19:19:16,838 - INFO - Model architecture: TradingANN(
  (input_layer): Linear(in_features=860, out_features=512, bias=True)
  (hidden_layers): ModuleList(
    (0): Linear(in_features=512, out_features=256, bias=True)
    (1): Linear(in_features=256, out_features=128, bias=True)
    (2): Linear(in_features=128, out_features=64, bias=True)
    (3): Linear(in_features=64, out_features=32, bias=True)
  )
  (output_layer): Linear(in_features=32, out_features=11, bias=True)
)
2025-04-21 19:19:16,838 - INFO - 
Starting training...
2025-04-21 19:19:17,484 - INFO - 
Epoch 1/200
2025-04-21 19:19:17,485 - INFO - Training phase...
2025-04-21 19:19:43,084 - INFO - 
Validation phase...
2025-04-21 19:19:57,624 - INFO - 
Epoch Summary:
2025-04-21 19:19:57,624 - INFO - Training Loss: 365.297394
2025-04-21 19:19:57,624 - INFO - Validation Loss: 368.719732
…
2025-04-21 19:22:19,015 - INFO - Loading configuration...
2025-04-21 19:22:19,019 - INFO - Window size: 20
2025-04-21 19:22:19,019 - INFO - Batch size: 32
2025-04-21 19:22:19,019 - INFO - 
Preparing data...
2025-04-21 19:22:26,716 - ERROR - Error in main: __len__() should return >= 0
2025-04-21 19:22:55,255 - INFO - Loading configuration...
2025-04-21 19:22:55,258 - INFO - Window size: 20
2025-04-21 19:22:55,258 - INFO - Batch size: 32
2025-04-21 19:22:55,258 - INFO - 
Preparing data...
2025-04-21 19:23:02,100 - INFO - 
Creating model...
2025-04-21 19:23:02,114 - INFO - Model architecture: TradingANN(
  (input_layer): Linear(in_features=860, out_features=512, bias=True)
  (hidden_layers): ModuleList(
    (0): Linear(in_features=512, out_features=256, bias=True)
    (1): Linear(in_features=256, out_features=128, bias=True)
    (2): Linear(in_features=128, out_features=64, bias=True)
    (3): Linear(in_features=64, out_features=32, bias=True)
  )
  (output_layer): Linear(in_features=32, out_features=11, bias=True)
)
2025-04-21 19:23:02,114 - INFO - 
Starting training...
2025-04-21 19:23:02,624 - INFO - 
Epoch 1/200
2025-04-21 19:23:02,624 - INFO - Training phase...
2025-04-21 19:24:00,413 - INFO - 
Validation phase...
2025-04-21 19:25:27,769 - INFO - Loading configuration...
2025-04-21 19:25:27,773 - INFO - Window size: 20
2025-04-21 19:25:27,773 - INFO - Batch size: 32
2025-04-21 19:25:27,773 - INFO - 
Loading data into RAM...
2025-04-21 19:25:28,030 - INFO - 
Preparing data...
2025-04-21 19:25:34,959 - INFO - 
Creating model...
2025-04-21 19:25:34,973 - INFO - Model architecture: TradingANN(
  (input_layer): Linear(in_features=860, out_features=512, bias=True)
  (hidden_layers): ModuleList(
    (0): Linear(in_features=512, out_features=256, bias=True)
    (1): Linear(in_features=256, out_features=128, bias=True)
    (2): Linear(in_features=128, out_features=64, bias=True)
    (3): Linear(in_features=64, out_features=32, bias=True)
  )
  (output_layer): Linear(in_features=32, out_features=11, bias=True)
)
2025-04-21 19:25:34,973 - INFO - 
Starting training...
2025-04-21 19:25:35,531 - INFO - 
Epoch 1/200
2025-04-21 19:25:35,531 - INFO - Training phase...
2025-04-21 19:26:32,815 - INFO - 
Validation phase...
2025-04-21 19:27:23,969 - INFO - Loading configuration...
2025-04-21 19:27:23,973 - INFO - Window size: 20
2025-04-21 19:27:23,973 - INFO - Batch size: 32
2025-04-21 19:27:23,973 - INFO - 
Loading data into RAM...
2025-04-21 19:27:24,247 - INFO - 
Preparing data...
2025-04-21 19:27:30,747 - INFO - 
Creating model...
2025-04-21 19:27:30,762 - INFO - Model architecture: TradingANN(
  (input_layer): Linear(in_features=860, out_features=512, bias=True)
  (hidden_layers): ModuleList(
    (0): Linear(in_features=512, out_features=256, bias=True)
    (1): Linear(in_features=256, out_features=128, bias=True)
    (2): Linear(in_features=128, out_features=64, bias=True)
    (3): Linear(in_features=64, out_features=32, bias=True)
  )
  (output_layer): Linear(in_features=32, out_features=11, bias=True)
)
2025-04-21 19:27:30,764 - ERROR - Error in main: _share_filename_: only available on CPU
2025-04-21 19:27:56,263 - INFO - Loading configuration...
2025-04-21 19:27:56,267 - INFO - Window size: 20
2025-04-21 19:27:56,267 - INFO - Batch size: 32
2025-04-21 19:27:56,267 - INFO - 
Loading data into RAM...
2025-04-21 19:27:56,523 - INFO - 
Preparing data...
2025-04-21 19:28:03,511 - INFO - 
Creating model...
2025-04-21 19:28:03,518 - INFO - Model architecture: TradingANN(
  (input_layer): Linear(in_features=860, out_features=512, bias=True)
  (hidden_layers): ModuleList(
    (0): Linear(in_features=512, out_features=256, bias=True)
    (1): Linear(in_features=256, out_features=128, bias=True)
    (2): Linear(in_features=128, out_features=64, bias=True)
    (3): Linear(in_features=64, out_features=32, bias=True)
  )
  (output_layer): Linear(in_features=32, out_features=11, bias=True)
)
2025-04-21 19:31:31,222 - INFO - Loading configuration...
2025-04-21 19:31:31,226 - INFO - Window size: 20
2025-04-21 19:31:31,226 - INFO - Batch size: 32
2025-04-21 19:31:56,381 - INFO - Worker 7 - Epoch 1/200:
2025-04-21 19:31:56,381 - INFO - Training Loss: 363.798960
2025-04-21 19:31:56,381 - INFO - Validation Loss: 373.443599
2025-04-21 19:31:57,021 - INFO - Worker 4 - Epoch 1/200:
…
